t_d/othello_model.npz (npz, 87311 bytes, 6 tensors)

predictor/l1/b f4 [100]
0	0x3e32eec1	0.1747389
1	0x3f164de5	0.5871261
2	0x3f5bfd6b	0.8593356
3	0xbdb1a7e4	-0.08674601
4	0x3e0d1c28	0.13780272
5	0x3fa4b058	1.2866316
6	0xbe60841c	-0.21925396
7	0x3e2b7cd9	0.16746844
8	0xbecb1f4c	-0.39672315
9	0xbe8f8b06	-0.28035754
10	0x3f06dc02	0.52679455
11	0x3e73ad5e	0.23796603
12	0xbed551c5	-0.41663948
13	0x3e8504f9	0.25980356
14	0x3f3040de	0.6884898
15	0x3dc4f61c	0.09617254
16	0x3faf8e42	1.3715289
17	0x3e1fde8f	0.15612243
18	0x3ed007a9	0.40630844
19	0xbe6ce0d8	-0.23132646
20	0x3e6baded	0.23015566
21	0xbe34928c	-0.17634028
22	0x3f5c8589	0.8614126
23	0x3dd76ec9	0.105191775
24	0xbe5d7a6e	-0.21628734
25	0x3ddc9dcc	0.10772285
26	0x3e8e2b6e	0.2776751
27	0x3f2b0c80	0.6681595
28	0x3fa7adda	1.309993
29	0x3eadeb5a	0.33968621
30	0x3f058f32	0.52171624
31	0x3e741a2c	0.23838109
32	0xba933ab2	-0.0011232703
33	0xbe3ad0b4	-0.18243676
34	0x3e5d9c65	0.21641691
35	0x3eb6ab2f	0.35677478
36	0xbc1b635c	-0.009484138
37	0xbd990891	-0.07472337
38	0xbeb2fa15	-0.34956422
39	0xbe1437c9	-0.14474405
40	0x3ee82d99	0.45347288
41	0x3d8e0d79	0.069361635
42	0x3e9e143d	0.30874816
43	0x3e1b7302	0.15180591
44	0x3e931205	0.28724685
45	0x3f2538d4	0.6453984
46	0x3d86a057	0.06573551
47	0xbf107a93	-0.56437033
48	0xbd70d50c	-0.058796927
49	0x3ddc958b	0.107707106
50	0x3f1f68ec	0.62269473
51	0xbf9c87ce	-1.2228944
52	0x3e7f03e8	0.24903834
53	0x3e65a956	0.22427878
54	0xbde996a0	-0.114056826
55	0xbe4c9d70	-0.19981933
56	0xbf037fcd	-0.51366884
57	0xbe7e8434	-0.24855119
58	0x3f6c730f	0.92363065
59	0x3e015c66	0.12632903
60	0x3e67ce9d	0.2263741
61	0xbc793a0a	-0.0152115915
62	0x3f2970a3	0.66187495
63	0xbd99fab2	-0.075185195
64	0xbf51fcc3	-0.8202631
65	0x3ec6cae0	0.38826656
66	0x4004e9ac	2.0767622
67	0xbe5763d5	-0.21034177
68	0xbf0648b8	-0.5245471
69	0xbff7c0be	-1.9355695
70	0x3f4495d3	0.76791114
71	0xbf4b095f	-0.79311174
72	0x3e44978a	0.19198433
73	0x3f3d3514	0.73909116
74	0x3ec58837	0.38580486
75	0x3d6b3d4c	0.057431504
76	0x3f5e0529	0.86726624
77	0xbef470ff	-0.4774246
78	0xbe050d48	-0.12993348
79	0xbe09ab7f	-0.13444327
80	0x3f33ac58	0.7018485
81	0xbf15a17e	-0.5844954
82	0x3f526c5e	0.82196605
83	0xbf94deb2	-1.1630461
84	0x3e67a688	0.2262212
85	0x3efbb2ad	0.49159756
86	0x3f0e12af	0.5549726
87	0x3f5e8345	0.8691905
88	0x3f108e92	0.56467545
89	0x3f4109c5	0.7540553
90	0x3f023e7f	0.5087661
91	0xbd1fc7af	-0.039008792
92	0x3ed3f40d	0.41397133
93	0x3cffe224	0.031235762
94	0xbee00189	-0.4375117
95	0x3f211587	0.62923473
96	0x3e511ab3	0.20420341
97	0xbf59b519	-0.8504196
98	0xbe95d9eb	-0.2926782
99	0xbe416db5	-0.18889506

predictor/l1/W f4 [100, 64]
0	0xbe13dbfc	-0.14439386
1	0x3df7d33d	0.121008374
2	0x3e49b482	0.19697765
3	0xbf059a91	-0.52188975
4	0x3d23aa19	0.03995714
5	0x3eb9d328	0.36293912
6	0xbe97e781	-0.2966881
7	0x3e395900	0.18100357
8	0xbdce7937	-0.10081714
9	0xbdb484af	-0.0881437
10	0xbe2e566d	-0.17025156
11	0x3e87f9d1	0.26557782
12	0xbe4c9882	-0.19980052
13	0xbddd27e6	-0.10798626
14	0xbf023f86	-0.5087818
15	0x3d3b942a	0.045795597
16	0x3e77c9ed	0.24198122
17	0xbd9ee4bf	-0.077584736
18	0x3d46ed9f	0.048566457
19	0xbe2593d9	-0.1616968
20	0xbdbeffe1	-0.09326149
21	0x3e8fd9b7	0.2809579
22	0x3d9af009	0.07565314
23	0x3e5be956	0.2147573
24	0x3f1459f5	0.57949764
25	0x3ed7bbdf	0.42135522
26	0x3d247a50	0.04015571
27	0x3eaafdea	0.33396846
28	0xbdd8b5fb	-0.10581585
29	0x3d094aff	0.033518787
30	0x3cf4003c	0.029785268
31	0xbe487c22	-0.19578603
32	0xbd89ea9a	-0.067342
33	0xbd8fdf48	-0.070250094
34	0xbe904877	-0.28180286
35	0xbafc9b29	-0.0019272316
36	0x3c910b0c	0.017705463
37	0xbdebdc27	-0.115166
38	0x3e32e5e2	0.17470506
39	0xbe1f9f86	-0.15588197
40	0x3e26d2d3	0.1629136
41	0xbe3ca400	-0.18421936
42	0xbe6290ae	-0.22125503
43	0x3e76c4c5	0.24098499
44	0x3e8c974e	0.27459186
45	0x3d5c4611	0.053777758
46	0x3e0d21eb	0.1378247
47	0x3dc010d6	0.09378211
48	0xbe957ab8	-0.2919519
49	0x3d9c4a40	0.076313496
50	0x3da51c37	0.08062022
51	0x3e2d6454	0.16932803
52	0xbf0be8a2	-0.54651845
53	0x3eaaf88b	0.33392748
54	0x3e5c89a1	0.21536876
55	0xbea1a4c3	-0.31571016
56	0x3e2d17e2	0.16903642
57	0xbd2dd0f4	-0.0424356
58	0x3d504183	0.050843727
59	0x3e38f58b	0.18062417
60	0x3e52068a	0.20510307
61	0x3edfd73c	0.43718898
62	0xbdaa3324	-0.083105356
63	0x3eaee933	0.34162292
64	0xbcf2a822	-0.029621188
65	0x3e9a01d7	0.3007953
66	0xbe50cc61	-0.20390464
67	0xbd0af37f	-0.033923622
68	0x3e038e0c	0.12847155
69	0x3e0b1314	0.13581496
70	0xbe1c4583	-0.15260892
71	0xbc1aa20f	-0.009438052
72	0xbe5eb109	-0.21747221
73	0x3e059d41	0.13048269
74	0x3ed73d98	0.4203918
75	0x3dcd09dd	0.10011647
76	0xbeda76de	-0.42668813
77	0xbe01083b	-0.12600796
78	0xbe2d96a9	-0.16952004
79	0x3ed1827e	0.4091987
80	0x3bd16268	0.006389905
81	0xbef1c6f5	-0.47222105
82	0xbda63eb0	-0.081174254
83	0xbe0862a0	-0.13318872
84	0x3f10baff	0.56535333
85	0xbdcae253	-0.09906449
86	0x3b1efbfb	0.0024259079
87	0x3e1f9992	0.15585926
88	0xbe3b460f	-0.18288444
89	0xbda45c44	-0.08025411
90	0xbef9c221	-0.4878092
91	0xbebdf550	-0.3710122
92	0xbe993a89	-0.2992747
93	0x3d80c4f6	0.06287567
94	0x3e16aaab	0.14713542
95	0x3e8d8ff3	0.27648887
96	0xbec004d3	-0.3750368
97	0x3f065ddc	0.5248697
98	0x3ea0e798	0.31426692
99	0x3f0e1624	0.55502534
100	0x3e05207b	0.13000672
101	0xbdc7fff8	-0.09765619
102	0x3e9e86bb	0.30962166
103	0xbee6c892	-0.45074898
104	0xbcf7c89c	-0.030247025
105	0x3d73aa5e	0.059488647
106	0xbef895f9	-0.4855192
107	0x3e9f3ada	0.31099588
108	0x3ea17277	0.31532642
109	0x3dfdfdd9	0.12401933
110	0x3d57b887	0.052666213
111	0x3e55e56a	0.20888296
112	0x3eb7db2c	0.35909402
113	0xbf0cfcdc	-0.5507333
114	0xbe50e2a8	-0.20398962
115	0x3de0007e	0.10937594
116	0xbdf0665b	-0.11738273
117	0x3e4c0684	0.1992436
118	0xbece9eef	-0.40355632
119	0xbebcf2a9	-0.36903885
120	0xbd9fed03	-0.07808878
121	0x3e19b4d7	0.15010391
122	0x3e28ba52	0.16477326
123	0xbe3f522c	-0.1868369
124	0x3c2f1143	0.010685268
125	0x3e4e0f8d	0.2012312
126	0x3eb2aea1	0.34898856
127	0xbe89ad4f	-0.26890036
128	0x3e38a723	0.18032508
129	0x3e2d5f4a	0.16930881
130	0x3e58ba47	0.21164809
131	0x3e279cff	0.16368483
132	0xbec3114a	-0.38099128
133	0xbd477b4f	-0.04870158
134	0xbc701820	-0.014654189
135	0x3e122a5c	0.14273971
136	0xbe3db50d	-0.18526097
137	0x3d856ede	0.06515287
138	0xbd89d9fc	-0.0673103
139	0x3e71eed7	0.23626266
140	0x3c398f96	0.011325737
141	0xbe71f547	-0.23628722
142	0xbdd746ab	-0.10511526
143	0xbe9d5cef	-0.30734965
144	0x3d0c42af	0.034243282
145	0x3efdabf3	0.4954525
146	0x3e0c22dc	0.13685173
147	0x3e70587f	0.23471259
148	0xbda84637	-0.082165174
149	0xbdcce1c6	-0.10004
150	0xbab53825	-0.0013825936
151	0x3e771025	0.24127252
152	0x3ca2533c	0.01981508
153	0xbe89c61d	-0.2690896
154	0xbdee6277	-0.116398744
155	0x3cdf3afc	0.027249806
156	0xbe312177	-0.17297922
157	0x3ef83b72	0.48482853
158	0xbe3699b2	-0.17832068
159	0xbdac7895	-0.08421437
160	0xbebf4057	-0.37353775
161	0x3e523ebd	0.20531745
162	0x3ee9318c	0.45545614
163	0x3ebc1aff	0.36739346
164	0xbe9fcc36	-0.31210488
165	0x3f101a6c	0.56290317
166	0xbe6281fd	-0.22119899
167	0xbe12bd5c	-0.14330047
168	0xbe905768	-0.28191686
169	0x3e320d9d	0.17388006
170	0x3e9e8e27	0.3096783
171	0xbed0f4ba	-0.40811712
172	0xbefef3b6	-0.49795312
173	0x3cb4beb6	0.022063594
174	0x3de2431f	0.110479586
175	0xbdd8a862	-0.105789915
176	0x3df9c991	0.12196649
177	0xbedf42c4	-0.43605626
178	0xbe52bd59	-0.20580043
179	0x3e5f3980	0.21799278
180	0xbde84f63	-0.11343267
181	0x3e16dd47	0.14732848
182	0x3f64ec0b	0.89422673
183	0xbd008de8	-0.031385332
184	0x3e6dc00a	0.23217788
185	0xbdb22816	-0.08699052
186	0xbe27789b	-0.16354601
187	0x3e8ec8a3	0.2788745
188	0xbe8daf04	-0.2767259
189	0x3e0c085d	0.13675065
190	0x3e8f21ff	0.27955624
191	0xbefa2040	-0.4885273
192	0x3deea545	0.116526164
193	0xbe67a145	-0.22620113
194	0xbe9b3046	-0.30310267
195	0x3c8a5070	0.016884059
196	0x3c6e4298	0.014542244
197	0xbd82a3db	-0.06378909
198	0x3f25c50b	0.6475379
199	0xbe646462	-0.22303918
200	0xbeb16142	-0.34644514
201	0xbd76098b	-0.060067695
202	0xbe702cb3	-0.23454551
203	0xbe2f0f91	-0.17095782
204	0x3ec9e99a	0.39436036
205	0x3e9e05fd	0.30863944
206	0x3e2049e4	0.15653187
207	0x3ec117ce	0.37713474
208	0x3d8c9262	0.06863858
209	0x3da3e082	0.08001806
210	0xbe3050b9	-0.17218293
211	0xbe1bddf6	-0.1522139
212	0xbd1003db	-0.035159927
213	0x3e5ce73b	0.21572582
214	0x3e49fe92	0.19726017
215	0x3e29f6f5	0.16598113
216	0x3e3bc2ae	0.18335983
217	0xbea3cb5e	-0.31991094
218	0xbcb65546	-0.022257458
219	0xbf23d57a	-0.63997614
220	0x3cf76efd	0.03020429
221	0x3e83c999	0.25739744
222	0x3ef41724	0.47673905
223	0xbe88a03c	-0.2668475
224	0x3e1c477b	0.15261643
225	0xbe35278c	-0.17690867
226	0xbd7d06c6	-0.061774038
227	0x3e965731	0.29363397
228	0xbcd9f121	-0.026604237
229	0x3e92d76e	0.28679985
230	0xbe096593	-0.13417654
231	0x3d5b7608	0.05357936
232	0x3d09834a	0.033572473
233	0x3edea7af	0.43487307
234	0x3e25d1a4	0.16193253
235	0xbe72bf29	-0.23705734
236	0xbc07e7f1	-0.008295045
237	0x3e816e30	0.2527938
238	0xbe75bd5a	-0.23998013
239	0x3e92c8b7	0.28668758
240	0xbe9cb410	-0.30606127
241	0xbf13af5d	-0.5768946
242	0x3e1af38e	0.15131971
243	0x3e3e8ad1	0.18607642
244	0x3ebe4335	0.3716065
245	0x3e1d444d	0.15358086
246	0xbdd0de60	-0.10198665
247	0xbf25b553	-0.64729804
248	0xbe067c57	-0.1313337
249	0x3df1320e	0.11777125
250	0xbe9db3ab	-0.30801138
251	0x3ef9fd4d	0.48826066
252	0xbe3ee417	-0.18641697
253	0x3cf01ea5	0.029311487
254	0x3e708f36	0.2349213
255	0x3d476f86	0.04869034

predictor/l3/b f4 [65]
0	0xbf12fe0f	-0.5741891
1	0x3f0b28f0	0.5435934
2	0x3f269ae3	0.6508009
3	0x3e2e8470	0.17042708
4	0x3ed720d0	0.4201722
5	0x3d92d31b	0.071691714
6	0x3ea5d355	0.32387796
7	0xbf077669	-0.52915055
8	0x3e838b94	0.25692427
9	0xbe35ed65	-0.1776634
10	0xbd7b73f7	-0.06138989
11	0x3dba6d10	0.09102833
12	0xbec1af34	-0.37828982
13	0xbd845dc3	-0.06463196
14	0xbe40c6bc	-0.18825811
15	0x3dd21927	0.10258704
16	0x3e153e16	0.14574465
17	0x3e088f23	0.13335852
18	0x3dde08f9	0.10841555
19	0x3dd4ae73	0.10384836
20	0x3de3d625	0.11124829
21	0xbe3fe8e0	-0.18741179
22	0x3c30803b	0.01077276
23	0xbe3cc06e	-0.18432781
24	0x3bd43676	0.006476219
25	0xbe8868d3	-0.26642475
26	0x3e4dfbba	0.20115557
27	0xbd7969c5	-0.060891885
28	0xbd8ad9f9	-0.06779856
29	0x3d816c0a	0.06319435
30	0xbea3372c	-0.3187803
31	0x3dd37fb8	0.10327095
32	0x3e7b75cd	0.24556656
33	0xbc0d6e59	-0.008632266
34	0x3d37acab	0.044842403
35	0xbd9860e2	-0.07440354
36	0xbd690858	-0.056892723
37	0x3e68a26d	0.2271821
38	0xbb97cefc	-0.0046328288
39	0xbdca3560	-0.09873462
40	0x3e9f8864	0.31158745
41	0x3e7521c4	0.23938662
42	0xbe89a35e	-0.26882452
43	0xbdb1c587	-0.086802535
44	0x3d07fe53	0.033201527
45	0xbd9aa4f9	-0.07550997
46	0x3d5ca82a	0.05387131
47	0x3e2b853d	0.16750045
48	0x3e616cc0	0.22014141
49	0xbed280df	-0.41113946
50	0x3e13c457	0.14430366
51	0xbee7a89b	-0.45245823
52	0xbe8c4eb7	-0.27403805
53	0x3d0d9b37	0.034571853
54	0xbe777557	-0.24165855
55	0x3dd8ce22	0.10586192
56	0xbe93919d	-0.28822032
57	0x3ec92ea8	0.39293408
58	0xbde0fcad	-0.10985694
59	0x3dade3a6	0.08490686
60	0xbdbe3e14	-0.09289184
61	0x3e894601	0.2681122
62	0x3e791eb0	0.24328113
63	0xbf45534a	-0.77080214
64	0xbd6eed25	-0.058331627

predictor/l3/W f4 [65, 100]
0	0x3c22cf16	0.009937068
1	0xbd226902	-0.039650925
2	0xbd8ee213	-0.06976714
3	0x3deed12f	0.11660992
4	0xbe9203a9	-0.28518417
5	0xbe23b635	-0.15987475
6	0xbdf11353	-0.11771264
7	0x3ee5024f	0.44728324
8	0x3c9eb62f	0.019373981
9	0x3d24bb7c	0.04021786
10	0xbda84a6e	-0.08217321
11	0xbe239b09	-0.1597711
12	0xbe2c6430	-0.16835093
13	0x3e56adf4	0.20964795
14	0xbe035070	-0.12823653
15	0x3e63ac5b	0.22233717
16	0x3e1e0a73	0.15433674
17	0x3e0c0c6b	0.13676612
18	0x3dbd7d76	0.092524454
19	0xbc9a9d5c	-0.018873863
20	0x3e8b186e	0.27167076
21	0xbc583052	-0.013195114
22	0xbe9d65d3	-0.30741748
23	0xbdb95914	-0.090501934
24	0x3e54d79b	0.20785372
25	0x3ea9daac	0.33174646
26	0x3b4af508	0.0030968804
27	0x3e335001	0.17510988
28	0x3d981119	0.07425136
29	0xbd604fc3	-0.054763567
30	0x3e2d3dd3	0.16918115
31	0x3d1ae298	0.037813753
32	0x3ea7e0d7	0.32788727
33	0x3da9bc7c	0.08287904
34	0xbe7d92da	-0.2476305
35	0xbdfde43b	-0.12397047
36	0x3d28cafb	0.041209202
37	0xbe018192	-0.12647083
38	0x3e9e601e	0.30932707
39	0xbedda7aa	-0.4329198
40	0x3e5d19be	0.21591851
41	0xbdda2277	-0.10651105
42	0xbec70b8c	-0.38875997
43	0xbea180a1	-0.3154345
44	0xbdc4517d	-0.09585855
45	0xbc12d2a7	-0.008961356
46	0xbeac922f	-0.3370528
47	0xbd98ae6b	-0.074551426
48	0xbdc55cab	-0.09636816
49	0x3eaf4462	0.3423186
50	0x3dc621eb	0.09674438
51	0x3e8d01df	0.2754049
52	0x3e14a083	0.14514355
53	0x3e02faaa	0.12790933
54	0xbb36a34e	-0.0027868333
55	0x3da72adb	0.08162471
56	0x3cf8fe0d	0.030394578
57	0x3e5becf2	0.21477106
58	0x3ca2af49	0.019858973
59	0x3e9d5324	0.30727494
60	0xbd0fe0c6	-0.03512647
61	0xbe685b1d	-0.22691007
62	0xbe2dc615	-0.16970094
63	0x3d01efbf	0.03172278
64	0xbe8f2ad4	-0.27962363
65	0xbec53e60	-0.3852415
66	0xbe0b983c	-0.13632292
67	0xbe861bc7	-0.26193067
68	0x3e0f009a	0.13965073
69	0xbe761378	-0.24030864
70	0x3e896dd9	0.2684162
71	0x3da50eb0	0.08059442
72	0xbe25ad71	-0.16179444
73	0x3e7d7094	0.24749976
74	0xbea71e85	-0.32640472
75	0x3d1d272f	0.038367447
76	0x3bf45c33	0.00745728
77	0xbe890b73	-0.26766548
78	0x3e987df2	0.2978359
79	0xbcf74ae2	-0.030187074
80	0xbe81b6cf	-0.25334784
81	0x3e9944a0	0.2993517
82	0xbc2e5502	-0.010640385
83	0x3e2be56e	0.16786739
84	0x3e8bb46a	0.27286083
85	0xbe869c1a	-0.2629097
86	0x3e36c2cb	0.17847745
87	0x3c93069c	0.017947488
88	0x3d957508	0.072977126
89	0x3db78de4	0.0896261
90	0xbf1838a0	-0.594614
91	0xbe25e496	-0.1620048
92	0xbe3ac0ab	-0.1823756
93	0x3e93f028	0.28894162
94	0x3e51862a	0.20461336
95	0x3b5feb12	0.0034167212
96	0x3e3d669c	0.18496174
97	0xbdf26090	-0.11834824
98	0x3e815434	0.25259554
99	0xbe9a66a8	-0.30156446
100	0x3e1fc662	0.15603021
101	0x3d85904a	0.065216616
102	0xbe9217b1	-0.285337
103	0x3e2cf34e	0.16889688
104	0xbe000b54	-0.12504321
105	0xbdeab10f	-0.114595525
106	0xbde0b858	-0.10972661
107	0x3ec02b79	0.37533167
108	0xbdb3e8ca	-0.08784635
109	0xbe96988b	-0.29413256
110	0xbc43c83d	-0.011949596
111	0xbea89989	-0.32929638
112	0xbd8b6741	-0.068068035
113	0x3da8a00a	0.0823365
114	0x3e0ebe52	0.13939789
115	0xbe908d60	-0.2823286
116	0xbf078743	-0.5294077
117	0xbedf09c7	-0.43562147
118	0x3d11a63f	0.035558935
119	0x3e41c469	0.18922581
120	0xbe382738	-0.17983711
121	0xbda5aed3	-0.08089986
122	0xbd3cfba5	-0.046138424
123	0x3ea860a6	0.32886237
124	0x3da45433	0.08023872
125	0x3e9bbf31	0.30419305
126	0xbea5fe35	-0.32420507
127	0xbc045f6f	-0.008079394
128	0x3d9ea941	0.07747126
129	0x3dd1beb9	0.102414556
130	0xbf169f23	-0.58836573
131	0xbdbf7bd2	-0.09349789
132	0x3e38b1bc	0.1803655
133	0xbdd11f17	-0.10211008
134	0x3ef16be3	0.47152624
135	0xbd9511b8	-0.0727877
136	0xbbe4d649	-0.0069835526
137	0x3e831c10	0.25607347
138	0xbde9950a	-0.1140538
139	0x3edc9367	0.4308121
140	0x3cbc6078	0.022995219
141	0xbcc7e0ba	-0.02439915
142	0x3d2e9f49	0.042632375
143	0x3d019980	0.03164053
144	0x3cadf264	0.021233745
145	0xbd851df3	-0.06499853
146	0xbe21bd65	-0.15794905
147	0xbc593413	-0.013257044
148	0x3e277068	0.16351473
149	0x3e36bbd1	0.17845084
150	0x3ef0af89	0.47008923
151	0x3eec32eb	0.46132597
152	0x3e0e7959	0.13913478
153	0xbf384053	-0.7197315
154	0xbcc090b5	-0.023506502
155	0xbcef2369	-0.02919169
156	0x3c53ac2d	0.012919468
157	0xbed25303	-0.41078958
158	0x3ecb79ee	0.39741462
159	0x3e75974b	0.23983495
160	0x3d14157d	0.036153305
161	0xbd5bd1b3	-0.05366678
162	0xbe055976	-0.13022408
163	0x3ecf746d	0.40518513
164	0xbc60eda0	-0.013728529
165	0xbdf4cc49	-0.11953027
166	0xbcb3e171	-0.021958085
167	0xbe41b7df	-0.18917798
168	0x3d9cc559	0.076548286
169	0xbe14c443	-0.14527993
170	0xbe329926	-0.17441234
171	0xbe1bd41c	-0.15217632
172	0xbf187e01	-0.59567267
173	0x3ede0c6b	0.4336885
174	0xbd8330e1	-0.06405807
175	0xbd9cbed9	-0.07653589
176	0x3dbe0469	0.09278185
177	0x3da6c7e9	0.081435986
178	0xbdbafdb1	-0.09130419
179	0xbd9f6eb4	-0.07784787
180	0x3d4601bf	0.04834151
181	0x3b791a30	0.0038009994
182	0xbd4c0308	-0.04980758
183	0x3e4ae590	0.19814134
184	0x39db28ca	0.00041801325
185	0x3dcb7e4e	0.099362
186	0xbdde68a5	-0.10859803
187	0xbd69b039	-0.057052825
188	0xbd99f4cc	-0.075173944
189	0xbdda31e7	-0.10654049
190	0xbf89aa86	-1.0755165
191	0xbb686f48	-0.003546672
192	0xbe5c507a	-0.21515074
193	0xbe73b68e	-0.23800108
194	0x3dd2996a	0.10283168
195	0xbdd0a7d7	-0.10188263
196	0xbe1633b0	-0.14668155
197	0x3c8082f9	0.015687453
198	0xbe23b3bd	-0.15986533
199	0xbe7ab7bc	-0.24484152
200	0x3e5c0514	0.21486312
201	0x3cdc4f78	0.026893362
202	0x3e2c3b05	0.16819389
203	0xbe82ca8e	-0.25545162
204	0x3e294e73	0.16533832
205	0x3e97996c	0.2960924
206	0x3da70f56	0.08157222
207	0xbcb3b9d0	-0.021939188
208	0xbe91295c	-0.28351867
209	0xbe5d2383	-0.21595578
210	0x3d1edf71	0.03878731
211	0x3e0e0208	0.13867962
212	0xbbc34fd7	-0.0059604454
213	0xbe1be1e9	-0.15222897
214	0x3e01d320	0.12678194
215	0x3bf7ec81	0.0075660353
216	0x3f625412	0.8840953
217	0x3eeb509f	0.45959947
218	0x3e924726	0.28569907
219	0x3e845d31	0.2585235
220	0xbe352ed3	-0.17693643
221	0x3d8d5a46	0.06901984
222	0xbdba9401	-0.09110261
223	0x3d64d6d1	0.055868927
224	0xbd5879fe	-0.052850716
225	0xbe265e29	-0.16246857
226	0x3e31d4e5	0.17366369
227	0x3ea31f9e	0.3186006
228	0x3d90cfb8	0.07070869
229	0xbd1395b5	-0.036031444
230	0xbf368419	-0.71295315
231	0xbd2bd57a	-0.041951634
232	0x3da119c4	0.078662425
233	0x3ea0c315	0.31398836
234	0x3eaa5f4f	0.3327584
235	0xbe04301c	-0.12908977
236	0x3dfacf1a	0.12246533
237	0x3e031fec	0.12805146
238	0x3e85745b	0.26065335
239	0xbaed1d02	-0.001809031
240	0xbe722a78	-0.23649013
241	0xbee2d170	-0.44300413
242	0x3e01d248	0.12677872
243	0x3c04d535	0.008107473
244	0x3eed3eb1	0.46336892
245	0x3d474e49	0.048658643
246	0xbed865e4	-0.42265236
247	0x3ee8cdb3	0.45469436
248	0xbeda1190	-0.42591524
249	0x3d8dec5c	0.069298476
250	0xbe129766	-0.14315566
251	0x3e8f8dae	0.2803778
252	0x3d10ce1e	0.03535282
253	0xbe55daf2	-0.20884302
254	0x3df7d69d	0.12101481
255	0x3dbdd033	0.092682265

predictor/l2/b f4 [100]
0	0x3e69adee	0.22820255
1	0xbea25eae	-0.3171286
2	0xbe97e844	-0.29669392
3	0x3e3ba292	0.18323734
4	0xbeee21ca	-0.46510154
5	0x3d4c12f1	0.04982275
6	0x3ec3420e	0.38136333
7	0x3d626fc6	0.055282377
8	0x3e2aaa59	0.16666545
9	0xbc95e8f6	-0.018299561
10	0x3afa8fc0	0.0019116327
11	0xbe096a91	-0.13419558
12	0x3c4a911f	0.012363701
13	0xbdaba897	-0.08381765
14	0x3e9e4840	0.30914497
15	0xbe08da71	-0.13364579
16	0x3d8f9410	0.070106626
17	0x3e788f94	0.2427352
18	0xbe73464e	-0.23757288
19	0x3ea5f7ed	0.32415715
20	0xbe96b5d9	-0.29435614
21	0xbeabcca0	-0.33554554
22	0x3e0dd248	0.13849747
23	0xbc99fb8f	-0.01879671
24	0x3eb4d490	0.35318422
25	0x3d2f07db	0.0427321
26	0x3d82e3fc	0.06391141
27	0x3d9661c8	0.07342869
28	0x3e23ceea	0.159969
29	0xbe282830	-0.1642158
30	0xbab489f9	-0.0013774029
31	0xbb4cbf68	-0.0031242017
32	0x3d459ba8	0.04824415
33	0x3e3d2129	0.18469681
34	0xbe00d13c	-0.12579817
35	0x3f290e0c	0.6603706
36	0x3eec7b2d	0.46187726
37	0x3eae5793	0.3405119
38	0x3e2b4115	0.16724046
39	0x3e98180e	0.29705852
40	0xbdedbc74	-0.1160821
41	0xbe8874e8	-0.26651692
42	0x3e50b7e2	0.20382646
43	0x3e71f77e	0.23629567
44	0xbe667958	-0.22507226
45	0x3f4b353e	0.79378116
46	0x3e6a7ed1	0.22899939
47	0x3eafa87e	0.34308237
48	0x3caded62	0.021231357
49	0xbe46b35d	-0.19404359
50	0xbc94c800	-0.018161774
51	0x3eb3a82b	0.3508924
52	0xbf566c0e	-0.8375863
53	0xbebd1699	-0.36931303
54	0xbe13499e	-0.14383551
55	0x3e894491	0.26810125
56	0xbd05ede7	-0.032697584
57	0x3c20de8e	0.009818686
58	0x3ee14708	0.43999505
59	0xbe71edd2	-0.23625877
60	0xbe2236d5	-0.1584123
61	0xbe909da5	-0.28245273
62	0x3f23d65a	0.6399895
63	0x3ef5d6a9	0.48015335
64	0x3d66f190	0.056382716
65	0xbe90fc57	-0.2831752
66	0x3dbba23e	0.091618046
67	0x3df71947	0.12065368
68	0x3e7519e8	0.23935664
69	0xbeb55dc8	-0.35423112
70	0xbe3697b9	-0.17831315
71	0x3f1209e3	0.57046336
72	0xbe31551d	-0.17317624
73	0xbded6627	-0.1159175
74	0xbdb62352	-0.088934556
75	0x3db8da90	0.090260625
76	0x3e38d391	0.18049456
77	0xbd2f57b3	-0.042808246
78	0x3d814c9e	0.06313442
79	0xbe897403	-0.26846322
80	0x3e4fc8b9	0.20291413
81	0x3d97ce1d	0.0741236
82	0xbe0df93f	-0.13864611
83	0x3eb1c709	0.34722164
84	0xbe531b20	-0.20615816
85	0x3edde5e9	0.4333947
86	0xbe89b7e6	-0.26898116
87	0xbf018a07	-0.5060124
88	0xbf20d3d4	-0.62823224
89	0x3ee33333	0.44375
90	0x3f0b1d19	0.54341274
91	0xbe17c7fb	-0.1482238
92	0x3da6915a	0.08133192
93	0x3e939c70	0.2883029
94	0x3db355a4	0.08756569
95	0x3e4c8496	0.19972453
96	0xbda56823	-0.08076503
97	0x3ecdeb37	0.40218517
98	0x3e2fd95a	0.17172757
99	0x39a8803f	0.00032139008

predictor/l2/W f4 [100, 100]
0	0x3d75f5af	0.060048755
1	0xbe7b52cb	-0.24543302
2	0x3e9d8f17	0.3077323
3	0xbe407841	-0.18795873
4	0x3f135de8	0.57565165
5	0xbc3206c8	-0.010865875
6	0xbeadda82	-0.3395577
7	0x3da2482b	0.07923921
8	0xbe32090a	-0.1738626
9	0xbe854ad2	-0.26033646
10	0xbd7d64b3	-0.061863612
11	0x3ee473da	0.44619638
12	0xbdb8d35e	-0.0902469
13	0xbbc95db5	-0.006145204
14	0x3e66d604	0.22542578
15	0xbd77bf71	-0.060485307
16	0x3da11af2	0.078664675
17	0x3e0b9e19	0.13634528
18	0x3c6df2ab	0.014523189
19	0x3ef64e39	0.48106554
20	0xbe9d25a2	-0.30692774
21	0xbd2951c2	-0.041337736
22	0x3c39eaa9	0.011347451
23	0xbdf7d5c6	-0.12101321
24	0xbdd40f1b	-0.10354444
25	0x3e56142c	0.20906132
26	0x3ea8c8a2	0.3296557
27	0x3e44f75e	0.19234988
28	0xbeb564b8	-0.35428405
29	0xbea1c564	-0.3159591
30	0xbe184b4e	-0.14872476
31	0x3d66d5f5	0.05635639
32	0x3de0f10e	0.109834775
33	0xbdebecc5	-0.115197696
34	0xbce87f63	-0.028381055
35	0x3ee75f3c	0.45189846
36	0xbe291d3e	-0.16515061
37	0x3e0105e6	0.12599906
38	0xbd232d2b	-0.039837997
39	0xbf1d8bea	-0.61541617
40	0xbe8f6b03	-0.2801133
41	0x3e483c9d	0.19554372
42	0x3e3dcf16	0.18536028
43	0xbf1ae8ee	-0.6051167
44	0xbe064b6a	-0.13114706
45	0x3e919867	0.28436586
46	0xbd6d4d99	-0.05793533
47	0xbc4aebf1	-0.012385354
48	0xbe7d92fd	-0.24763103
49	0xbc95e1c6	-0.018296134
50	0xbedc27c3	-0.42999086
51	0x3e1012f7	0.14069735
52	0x3e855e9e	0.2604875
53	0x3c886f6e	0.016654696
54	0x3e7aff97	0.24511562
55	0x3eca0f86	0.39464968
56	0xbc0e2a6b	-0.008677105
57	0xbed08f92	-0.40734535
58	0x3ec6bcd5	0.38815942
59	0xbec2644c	-0.37967145
60	0x3ed1b6c1	0.40959743
61	0xbe99482d	-0.29937878
62	0x3e52edb0	0.20598483
63	0x3d1d17bf	0.038352724
64	0xbeae20dc	-0.34009445
65	0xbe8475c3	-0.25871095
66	0xbedead7d	-0.43491736
67	0x3eda33f6	0.42617768
68	0xbd9190df	-0.0710771
69	0xbed81f11	-0.42211202
70	0x3e7d5088	0.24737751
71	0xbeda1635	-0.42595068
72	0x3da0e04d	0.07855282
73	0xbe1e5c9a	-0.15465012
74	0x3e54a770	0.20766997
75	0xbea35d67	-0.31907198
76	0xbe3dcc48	-0.18534958
77	0xbe532c74	-0.20622426
78	0x3de40614	0.11133972
79	0x3ecc5719	0.399102
80	0x3e2f2fc1	0.1710806
81	0xbe2f328f	-0.1710913
82	0x3ec6d280	0.38832474
83	0x3ee10c6c	0.4395479
84	0xbdadc978	-0.08485693
85	0x3ae5be4b	0.0017528025
86	0x3f084169	0.5322481
87	0xbe9640ff	-0.29346463
88	0xbebc6d50	-0.3680215
89	0xbe109ab5	-0.14121516
90	0xbe02eb9e	-0.12785193
91	0x3db83958	0.089953125
92	0x3e2f7063	0.17132716
93	0xbc81a6ae	-0.01582655
94	0x3ef8b858	0.48578143
95	0x3e1561da	0.14588109
96	0x3e630a6d	0.22171946
97	0x3e94f50d	0.2909321
98	0xbe4bcafe	-0.19901654
99	0x3e014f66	0.12627944
100	0xbe606ea5	-0.21917208
101	0x3df9411e	0.12170623
102	0xbe18dd68	-0.1492821
103	0xbe6ad7b1	-0.22933842
104	0xbe6a566c	-0.2288453
105	0xbeb255af	-0.34830996
106	0x3d89a33a	0.06720586
107	0xbee2fbc1	-0.44332698
108	0xbea2e17e	-0.31812662
109	0xbe48544d	-0.19563408
110	0xbe1f9843	-0.15585427
111	0x3dbf0f79	0.09329123
112	0x3eeb0d08	0.4590838
113	0xbd0f4f38	-0.03498766
114	0xbe9593bb	-0.29214272
115	0x3ed6e187	0.4196894
116	0x3eab6cab	0.33481345
117	0x3d830c8e	0.06398879
118	0x3d3e7ff8	0.04650876
119	0xbe29f0d4	-0.16595775
120	0xbe7505d8	-0.2392801
121	0x3e825c50	0.25461054
122	0x3efc44ac	0.49271142
123	0xbe8d349a	-0.27579194
124	0xbeee986d	-0.46600667
125	0x3e41f1bd	0.18939872
126	0xbd75fb9b	-0.060054403
127	0x3ca3472e	0.019931402
128	0x3ede7555	0.43448892
129	0xbe161325	-0.1465574
130	0x3e86ba90	0.2631421
131	0x3ec180e7	0.37793657
132	0x3d940671	0.07227791
133	0xbce10044	-0.027465947
134	0x3ed0ecea	0.4080575
135	0x3e774704	0.24148184
136	0x3e34746c	0.17622536
137	0xbe259a7b	-0.16172211
138	0xbe792d67	-0.24333726
139	0x3de05ad3	0.10954823
140	0xbe9726a8	-0.2952168
141	0xbd853741	-0.065046795
142	0x3b952e9a	0.0045526745
143	0x3e4bd08c	0.19903773
144	0x3e2e3fd7	0.1701654
145	0x3eef4209	0.46730068
146	0x3f078262	0.52933323
147	0x3b461935	0.0030227427
148	0x3db6ffd9	0.08935518
149	0x3f0d2f4e	0.55150306
150	0x3ecf3be4	0.4047538
151	0x3dca572e	0.098799095
152	0x3e120b98	0.14262235
153	0x3ee07054	0.438357
154	0x3e0fa2ff	0.14027022
155	0x3ef6dbb8	0.48214507
156	0x3e6b8108	0.2299844
157	0x3da0d8f6	0.07853882
158	0xbeebb656	-0.4603755
159	0x3d977491	0.0739528
160	0xbcc97c66	-0.02459545
161	0xbca303f2	-0.019899342
162	0xbe90b34c	-0.28261793
163	0xbd56596e	-0.05233138
164	0xbd949b60	-0.07256198
165	0xbede97ff	-0.4347534
166	0xbe55d686	-0.20882615
167	0xbd9faa40	-0.077961445
168	0x3e825c77	0.2546117
169	0xbdc4c25a	-0.09607382
170	0x3eefb31e	0.46816343
171	0xbe25e8e2	-0.16202119
172	0x3eb6f5f5	0.35734525
173	0xbe4c80fb	-0.19971077
174	0xbe964b8b	-0.2935451
175	0xbca72afb	-0.020406237
176	0xbc8130e9	-0.015770392
177	0x3d429b81	0.04751158
178	0x3dea94ee	0.11454187
179	0xbd8a3997	-0.06749266
180	0x3e700e4e	0.23442957
181	0xbe020f64	-0.12701184
182	0x3e973f6d	0.29540578
183	0x3ee4056e	0.44535393
184	0x3dc4bf1f	0.09606766
185	0x3cf96a02	0.030446056
186	0x3f233955	0.63759357
187	0x3e5e59e8	0.21713984
188	0xbe802d4c	-0.2503456
189	0x3dfc1db7	0.12310355
190	0x3dd9ce17	0.10635012
191	0xbe81d31c	-0.25356376
192	0x3ca44fa9	0.020057516
193	0x3d32159d	0.043477643
194	0xbea0d093	-0.3140913
195	0x3efba2d5	0.49147668
196	0x3ebb3ad2	0.36568314
197	0x3ead55f8	0.3385465
198	0x3b7ed66a	0.0038885125
199	0xbe51b953	-0.20480852
200	0x3d8ce995	0.0688049
201	0xbe81fd65	-0.25388637
202	0xbdf2c458	-0.11853856
203	0x3da58c64	0.08083418
204	0xbd755796	-0.05989798
205	0xbf3c998a	-0.7367178
206	0x3e01752b	0.12642352
207	0x3db741ca	0.08948095
208	0x3e18600e	0.14880392
209	0x3d0e0bc4	0.03467919
210	0xbdfbc532	-0.122934714
211	0x3ec7cf14	0.39025176
212	0xbeefd99a	-0.46845704
213	0x3eb2ec38	0.34945846
214	0xbef0c60f	-0.47026107
215	0x3e3c572e	0.18392631
216	0x3e53de51	0.20690276
217	0x3eba0d41	0.36338237
218	0xbdb382ad	-0.08765159
219	0x3d43f266	0.04783859
220	0x3e60e0e2	0.21960786
221	0xbe5a5464	-0.21321255
222	0xbc53aca9	-0.012919583
223	0xbe0e1d9a	-0.1387848
224	0x3f16d6df	0.5892162
225	0xbde84bc1	-0.11342574
226	0x3d983113	0.07431235
227	0xbd7d6456	-0.061863266
228	0xbd8eeee1	-0.06979156
229	0x3e70feb1	0.23534657
230	0x3e0dc7ca	0.13845745
231	0x3c8ca143	0.01716674
232	0x3e001c27	0.1251074
233	0x3d83fda4	0.064448625
234	0x3da6240c	0.08112344
235	0xbea3b4b2	-0.31973797
236	0xbbe09bde	-0.0068545183
237	0x3ee5508f	0.44788024
238	0x3da8840a	0.082283095
239	0xbd2a5433	-0.041584205
240	0xbd119f32	-0.03555221
241	0x3b70c12c	0.0036736233
242	0x3edd5a0d	0.43232766
243	0x3d26a40d	0.040683795
244	0x3ec1f02b	0.37878546
245	0x3e825db8	0.25462127
246	0xbe804b6f	-0.2505755
247	0x3f09c7f3	0.53820723
248	0xbe550155	-0.2080129
249	0x3e7294fd	0.23689647
250	0x3ea3c1c5	0.31983772
251	0x3e724dbf	0.2366247
252	0xbdecf065	-0.11569289
253	0xbf0b09e0	-0.54311943
254	0xbe0df593	-0.1386321
255	0x3d929124	0.071565896
