data/reversi_model.npz (npz, 87366 bytes, 6 tensors)

predictor/l1/W f4 [100, 64]
0	0x3eaa031a	0.3320549
1	0x3e86c4e5	0.26322094
2	0xbe7ad931	-0.24496914
3	0xbd896937	-0.06709521
4	0x3da63ba9	0.08116848
5	0x3da590b3	0.0808424
6	0x3d0dbebf	0.034605738
7	0x3dda3fd8	0.106567085
8	0x3ea9078b	0.33013567
9	0xbce8614e	-0.028366711
10	0x3ebf1804	0.3732301
11	0x3ef438b6	0.47699517
12	0xbe5f45cc	-0.21803969
13	0xbe84f4e7	-0.25968096
14	0xbed525a4	-0.4163028
15	0x3e05f72e	0.13082573
16	0xbe5578ed	-0.20846911
17	0x3e5fa5c5	0.2184058
18	0x3e282bdb	0.1642298
19	0x3f147f83	0.5800707
20	0xbe42792d	-0.18991537
21	0xbca6142e	-0.020273294
22	0x3ea19ac6	0.31563395
23	0xbe348bd2	-0.17631462
24	0xbc9022ad	-0.01759466
25	0x3e7f747e	0.24946782
26	0x3e23b562	0.15987161
27	0x3e8b3e74	0.27196085
28	0xbebe50e8	-0.37171102
29	0xbf38ff93	-0.72264975
30	0x3e0c18ef	0.13681386
31	0xbe0ed7b0	-0.13949466
32	0x3db1d581	0.08683301
33	0x3d50c778	0.05097148
34	0xbdb5d371	-0.0887822
35	0xbe86f525	-0.26358905
36	0xbcc3b01a	-0.023887683
37	0xbdb5320c	-0.08847436
38	0xbf1828d1	-0.5943728
39	0x3d05f1bf	0.03270125
40	0x3e455a92	0.19272831
41	0x3e6993ea	0.22810331
42	0x3eef8691	0.46782354
43	0x3ecc129c	0.39857948
44	0xbd33e964	-0.04392375
45	0x3e5e2d27	0.21696912
46	0x3e80140d	0.25015298
47	0x3d18b961	0.037286166
48	0xbea9f16a	-0.33191997
49	0x3efc563c	0.49284542
50	0x3e6d1fa6	0.23156604
51	0xbde86bd9	-0.11348695
52	0x3e556446	0.20839033
53	0xbe59dc21	-0.21275379
54	0xbca8ddec	-0.020613633
55	0xbd816911	-0.06318868
56	0xbf1981f3	-0.5996391
57	0xbeb5cecb	-0.35509333
58	0x3e869d91	0.2629209
59	0x3e85a117	0.26099464
60	0x3e3d3aab	0.18479411
61	0xbdd77d44	-0.105219394
62	0xbe3cdd26	-0.18443736
63	0x3e5465b6	0.20741925
64	0xbd298ddf	-0.041395064
65	0x3f000138	0.5000186
66	0x3c2a5aa1	0.010397584
67	0xbe91aee0	-0.28453732
68	0xbc953a5b	-0.018216303
69	0xbdbd7749	-0.092512675
70	0x3ce55633	0.027995205
71	0x3eff35f7	0.4984586
72	0xbd898c4b	-0.06716212
73	0xbe908c83	-0.28232202
74	0x3e49dffb	0.19714348
75	0xbda92fa6	-0.08261041
76	0x3e95f0a6	0.29285163
77	0x3e92a7aa	0.28643543
78	0xbe8fa40c	-0.28054845
79	0xbd87a923	-0.06624057
80	0xbe2d0719	-0.16897239
81	0x3d5ee672	0.05441899
82	0x3c7fdb91	0.015616314
83	0x3ec578f8	0.38568854
84	0xbe6d3caa	-0.23167673
85	0x3e82cc8f	0.2554669
86	0x3e8cb98c	0.2748531
87	0x3e4981bc	0.19678396
88	0xbd9d9653	-0.07694688
89	0xbe484ae9	-0.19559826
90	0xbddf3c14	-0.10900131
91	0xbd2e0eba	-0.042494513
92	0x3ed1de25	0.40989795
93	0x3e27920f	0.1636431
94	0x3d4a7ad9	0.049433563
95	0x3d44a799	0.048011396
96	0xbe880342	-0.26564986
97	0x3ed15ee4	0.40892708
98	0x3ebfdcad	0.3747305
99	0x3d95bf19	0.073118396
100	0x3ca4be33	0.020110225
101	0xbe8377fc	-0.25677478
102	0xbe0ba49a	-0.1363701
103	0x3e8dca0b	0.2769321
104	0x3e27be90	0.16381288
105	0xbe6e8521	-0.23292972
106	0xbf1ef998	-0.620996
107	0x3e16de93	0.14733343
108	0xbe546f64	-0.20745617
109	0x3f27d434	0.6555817
110	0xbbc8038b	-0.006103938
111	0xbeaef59c	-0.3417176
112	0x3e238b68	0.15971148
113	0x3d91bd76	0.07116215
114	0xbdc37e70	-0.095456004
115	0x3d945939	0.0724358
116	0xbdaa2925	-0.08308629
117	0xbe2cb7fd	-0.16867061
118	0xbdbc7d68	-0.09203607
119	0xbcff4024	-0.031158514
120	0x3ec6a7d2	0.38799912
121	0xbecfc85d	-0.40582553
122	0x3ee297f9	0.4425657
123	0x3e5f99c7	0.21836005
124	0xbeafc9cc	-0.34333646
125	0xbe85bbd8	-0.26119876
126	0x3e35f94d	0.17770882
127	0x3d73675c	0.059424743
128	0xc021726a	-2.5226083
129	0x3ea15cad	0.31516019
130	0xbee2300d	-0.44177285
131	0xbe5e21d2	-0.21692589
132	0xbd35c8a9	-0.044380818
133	0xbc281d4d	-0.010260892
134	0x3ebca1e5	0.36842266
135	0x3d4accd3	0.04951174
136	0x3e7f152d	0.24910422
137	0x3e819bfb	0.25314316
138	0xbe033a8b	-0.12815301
139	0xbd197d37	-0.03747293
140	0xbd878e25	-0.06618909
141	0x3d3d4e43	0.046217214
142	0xbe9dad4c	-0.30796278
143	0x3e0f55b6	0.1399754
144	0x3d3beeb4	0.045881942
145	0xbe39943d	-0.18122955
146	0xbd9cf019	-0.076629825
147	0x3c264fb0	0.010150835
148	0x3cebbe2d	0.028777206
149	0x3d0f4763	0.03498019
150	0x3dcb0230	0.099125266
151	0xbe39cc6d	-0.18144388
152	0xbe270a40	-0.16312504
153	0xbe75ef04	-0.24016958
154	0x3e12e276	0.143442
155	0x3e6ae971	0.22940613
156	0x3e45b57f	0.19307517
157	0xbdd245dd	-0.102672316
158	0x3db3015d	0.087404944
159	0x3d9a25ed	0.07526765
160	0x3e270bc5	0.16313083
161	0xbe1f064e	-0.15529749
162	0xbbe0bb99	-0.006858301
163	0x3f068bc4	0.52557015
164	0xbe385af0	-0.1800344
165	0xbdfe6fd9	-0.12423677
166	0x3e6c2b11	0.23063304
167	0xbbc3affd	-0.005971907
168	0x3d0b75fb	0.03404806
169	0x3db790e8	0.089631855
170	0x3ef6cda4	0.48203766
171	0xbea00eb8	-0.3126123
172	0xbe796fa2	-0.24358991
173	0x3e604a8f	0.21903442
174	0xbdc311c4	-0.09524873
175	0xba093116	-0.00052334496
176	0xbe398972	-0.18118837
177	0xbf0fce01	-0.5617371
178	0xbe28502b	-0.16436832
179	0x3e90f9b2	0.28315502
180	0x3dc04393	0.09387889
181	0xbb240394	-0.0025026547
182	0xbd9485d0	-0.07252085
183	0xbe19566d	-0.14974375
184	0x3dcd8cce	0.10036622
185	0xbe8db0ed	-0.27674046
186	0x3dd73975	0.10509006
187	0x3e0a9c36	0.13536152
188	0xbdac7ef5	-0.08422653
189	0x3d5a5427	0.05330291
190	0xbe06d7d8	-0.13168275
191	0x3d81f138	0.06344837
192	0xbe9588ac	-0.29205835
193	0x3f11f22c	0.5701015
194	0x3e8c6215	0.2741858
195	0xbed4ca88	-0.4156077
196	0x3ed03a1b	0.4066933
197	0x3e16113f	0.14655016
198	0x3f095f5e	0.53661144
199	0x3f0d0d40	0.5509834
200	0xbdfd4920	-0.12367463
201	0x3dd66720	0.10468888
202	0xbcf99d63	-0.030470556
203	0x3ee48451	0.446322
204	0xbdb2d96f	-0.087328784
205	0xbe8e0e5e	-0.27745336
206	0x3ef889f2	0.48542744
207	0xbd8ed4ad	-0.069741584
208	0x3df936fe	0.12168692
209	0x3c6be39d	0.014397529
210	0xbe896062	-0.26831347
211	0x3f0a0b11	0.53923136
212	0xbc8ab855	-0.0169336
213	0xbe865b47	-0.26241514
214	0x3dd45015	0.10366837
215	0x3e63d333	0.22248535
216	0xbe67949e	-0.22615287
217	0xbc883ee5	-0.016631553
218	0x3da5821f	0.08081459
219	0xbef59481	-0.47964862
220	0xbd48b551	-0.04900104
221	0xbd872787	-0.06599336
222	0xbe23e1ec	-0.16004151
223	0x3d3b0934	0.045663074
224	0x3d9706a1	0.07374311
225	0x3d63e3d6	0.055637203
226	0xbe49663f	-0.1966791
227	0xbe435fc8	-0.19079506
228	0x3d0f2a29	0.034952316
229	0x3e97db64	0.2965957
230	0x3e17e9ec	0.14835328
231	0x3ebcedc1	0.36900142
232	0xbbdcfc96	-0.006743978
233	0xbe15585a	-0.14584485
234	0x3d0cdc10	0.034389555
235	0x3ced6e6e	0.028983321
236	0xbe17f858	-0.1484083
237	0x3e609c0a	0.21934524
238	0xbe1ce327	-0.15321027
239	0x3d25301e	0.04032909
240	0x3cfc116a	0.030770022
241	0x3d83b7cd	0.064315416
242	0xbebca4d6	-0.3684451
243	0x3d5a3d8c	0.053281352
244	0xbde5b8a9	-0.11216862
245	0xbef2c3c3	-0.4741498
246	0x3e1c51f6	0.1526564
247	0x3e89f95e	0.26948065
248	0xbbfa4488	-0.007637564
249	0xbe379a2d	-0.17929907
250	0x3ef32ff0	0.4749751
251	0x3e46c4ad	0.19410963
252	0xbeb113c3	-0.3458539
253	0x3d8ac708	0.067762434
254	0xbe174af2	-0.14774683
255	0x3efb0bf6	0.49032563

predictor/l1/b f4 [100]
0	0xbf37cd19	-0.7179733
1	0x3c13163f	0.008977472
2	0x3f30e182	0.690941
3	0x3e6e15dd	0.23250528
4	0x3d38e1e8	0.045137316
5	0xbf468139	-0.7754093
6	0x3e732e95	0.23748238
7	0x3e810d5b	0.25205502
8	0x3e1d54ff	0.15364455
9	0xbd0ef999	-0.034906004
10	0xbd378432	-0.044803806
11	0xbe8a79d5	-0.27046075
12	0xbe16b7b3	-0.14718513
13	0x3e7de7bb	0.2479543
14	0xbebe1d1f	-0.37131593
15	0x3f9103ff	1.1329345
16	0xbe946950	-0.28986597
17	0x3d82f726	0.06394796
18	0x3f84d744	1.0378194
19	0x3df5ee11	0.12008298
20	0xbe476df5	-0.19475539
21	0x3ea5c74d	0.32378617
22	0x3f2c9009	0.6740728
23	0x3ee6c3d7	0.4507129
24	0x3dc5ab27	0.09651785
25	0xbeafbc36	-0.3432328
26	0x3e7b2c0e	0.24528524
27	0x3f00589a	0.50135195
28	0x3ec948db	0.39313397
29	0xbdb20878	-0.086930215
30	0xbf210e8c	-0.6291282
31	0xbe2cc4c0	-0.16871929
32	0xbddda831	-0.108230956
33	0xbdb3cc5b	-0.08779212
34	0x3eaad32e	0.33364242
35	0x3ed369f3	0.4129177
36	0x3f60d9d8	0.87832403
37	0x3fba1d29	1.4540149
38	0x3f83e6ff	1.030487
39	0x3d1c8bf0	0.038219392
40	0xbea624c3	-0.32449922
41	0x3e16ef68	0.14739764
42	0xbe943a70	-0.28950834
43	0x3c67a43d	0.014138279
44	0xbe700021	-0.23437549
45	0x3ec8b423	0.39199933
46	0x3eea7a96	0.4579665
47	0x3e736daf	0.2377231
48	0xbec65e06	-0.3874361
49	0x3d897b2b	0.067129456
50	0x3d964079	0.07336516
51	0x3eb0fc89	0.3456767
52	0x3f3b3efe	0.73142993
53	0x3e8f8056	0.280276
54	0xbdcc55aa	-0.099772766
55	0x3f4fa9d9	0.8111854
56	0x3f211afb	0.62931794
57	0x3f022cb3	0.50849456
58	0xbeef2a9c	-0.46712196
59	0x3f2b9818	0.6702895
60	0xbddf96b3	-0.109174155
61	0x3df56df8	0.119838655
62	0xbec7f3c0	-0.39053154
63	0x3f9158c0	1.1355209
64	0x3c9b3194	0.01894454
65	0x3ef24fb5	0.47326437
66	0xc0022d43	-2.0340126
67	0x3f8a5a1e	1.0808752
68	0xbe990955	-0.29889932
69	0x3e494680	0.196558
70	0xbe5aac2a	-0.21354738
71	0x3c0797fe	0.008275984
72	0x3f190dac	0.59786487
73	0x3f417486	0.75568426
74	0x3f47fa97	0.78116745
75	0x3e4505fa	0.19240561
76	0x3f074877	0.5284495
77	0x3fb49ab5	1.4109713
78	0x3f7365f6	0.95077455
79	0xbe4d4265	-0.20044859
80	0x3e0ddbcc	0.13853377
81	0x3ef62e18	0.48082042
82	0x3e555c40	0.20835972
83	0x3de0e828	0.1098178
84	0x3f24aff5	0.6433099
85	0x3f6eec1d	0.9332903
86	0xbf1029df	-0.5631389
87	0xbe888076	-0.26660508
88	0xbe058d74	-0.13042241
89	0x3eb62f9e	0.35583204
90	0x3e937e10	0.28807116
91	0x3f00380f	0.5008554
92	0x3fe83af6	1.8142993
93	0xbf0a2c93	-0.53974265
94	0x3db608cd	0.08888397
95	0x3ea03913	0.31293544
96	0x3f336748	0.7007947
97	0x3ed54f36	0.41661996
98	0x3e17e108	0.14831936
99	0x3f36a8b4	0.7135117

predictor/l3/W f4 [65, 100]
0	0xbe8c41bd	-0.27393904
1	0xbd3176e4	-0.043326274
2	0x3e826af0	0.25472212
3	0xbca2bffc	-0.019866936
4	0xbe82b17f	-0.25526044
5	0x3e564338	0.2092408
6	0xbd851f0c	-0.06500062
7	0xbe8f9edb	-0.28050885
8	0xbbe19f8e	-0.0068854755
9	0xbd3368a0	-0.04380095
10	0x3e56aae5	0.20963629
11	0x3e04b2c1	0.12958814
12	0x3e259313	0.16169386
13	0x3d13bc50	0.03606826
14	0x3ea9bd67	0.33152315
15	0x3ea76e39	0.3270128
16	0x3ed2e85a	0.41192895
17	0x3e023d33	0.12718658
18	0xbdd9e487	-0.10639291
19	0x3e6ac4d7	0.22926651
20	0x3d7a14bd	0.061054934
21	0xbd84ceaa	-0.064847305
22	0x3e1ae71d	0.15127225
23	0x3ef446fc	0.47710407
24	0x3ee8a6c5	0.45439735
25	0x3d32ae6d	0.043623377
26	0xbedac77b	-0.42730317
27	0xbe967293	-0.29384288
28	0x3e47fc35	0.19529803
29	0x3eac425d	0.3364438
30	0xbc1b88e9	-0.009493091
31	0x3deefdb7	0.11669486
32	0x3d72e01a	0.05929575
33	0xbe7329f4	-0.23746473
34	0x3f01cf02	0.50706494
35	0x3da43c02	0.08019258
36	0xbdf1768e	-0.11790191
37	0xbdd2a8ef	-0.10286128
38	0x3d7da9d5	0.061929543
39	0x3bee7438	0.007277038
40	0xbe1c5335	-0.15266116
41	0xbe24265a	-0.16030255
42	0xbeb92ca7	-0.3616688
43	0x3dd56fa0	0.104216814
44	0xbe840bd7	-0.25790283
45	0x3dc254cc	0.0948883
46	0xbdd5aaf1	-0.10432995
47	0x3dc9d296	0.09854619
48	0x3eaf87bd	0.34283248
49	0xbecfd104	-0.40589154
50	0xbdb0bc7e	-0.08629702
51	0x3e81e891	0.25372747
52	0xbdf3e913	-0.1190969
53	0xbe1c335d	-0.15253969
54	0x3d59e077	0.053192582
55	0x3d3ca7df	0.04605853
56	0x3d593b97	0.053035345
57	0x3d9227e7	0.07136517
58	0xbe3702c3	-0.17872147
59	0x3f1de782	0.6168138
60	0xbe113baa	-0.14182916
61	0x3e56d90a	0.20981231
62	0x3e93667b	0.28789124
63	0xbdd40c95	-0.10353962
64	0xbe079d3f	-0.13243578
65	0xbe9574e4	-0.29190743
66	0x3d8c712c	0.06857523
67	0xbe8f4c58	-0.27987933
68	0xbe516761	-0.20449592
69	0xbcf2f6a9	-0.029658632
70	0xbea88fcc	-0.32922208
71	0x3e3fe274	0.18738729
72	0x3e84a317	0.25905678
73	0x3e061d71	0.13097169
74	0x3e4349b6	0.19071087
75	0x3cd1523e	0.025551911
76	0xbe23ff45	-0.16015346
77	0x3e0bd5d4	0.13655788
78	0x3d5dfdff	0.054197308
79	0xbe1d1a88	-0.15342152
80	0x3ea16d6c	0.31528795
81	0x3caf4622	0.021395747
82	0xbe37bbef	-0.17942785
83	0xbdae9e57	-0.08526295
84	0xbdd32e6f	-0.10311591
85	0xbd44dfad	-0.048064876
86	0x3e38e7cf	0.18057178
87	0x3d827a4a	0.06370981
88	0x3d510c45	0.05103709
89	0x3d8dd659	0.06925649
90	0xbd79c4fa	-0.060978867
91	0xbb854670	-0.0040672347
92	0x3e3f686d	0.18692179
93	0x3d612365	0.054965395
94	0xbdb20ea6	-0.086942
95	0xbe94ae1d	-0.29039088
96	0x3b57150c	0.0032818941
97	0xbf0152ce	-0.50516975
98	0x3e9fa715	0.3118216
99	0xbe771bc7	-0.2413169
100	0x3c8062b9	0.015672075
101	0x3e572611	0.21010615
102	0xbecbb4fd	-0.3978652
103	0xbeb558ee	-0.3541941
104	0x3e20c251	0.15699126
105	0x3e8ca955	0.2747294
106	0x3c920f30	0.017829508
107	0x3dd1cd2e	0.10244213
108	0xbec66d21	-0.38755134
109	0x3ebf4f84	0.37365353
110	0x3e45ed29	0.1932875
111	0xbc0ffb84	-0.008787993
112	0x3e4dbcd4	0.20091563
113	0x3d998475	0.07495967
114	0xbeb7c8f2	-0.35895497
115	0xbdedebe7	-0.116172604
116	0xbe343f20	-0.17602205
117	0xbe661d6d	-0.22472163
118	0xbe143d7e	-0.14476582
119	0xbdd58287	-0.10425287
120	0xbd1909a4	-0.03736271
121	0xbe85dfed	-0.26147404
122	0x3d885699	0.06657142
123	0xbf00965d	-0.50229436
124	0x3ec81b81	0.39083484
125	0x3e17c09c	0.14819568
126	0x3e88dd00	0.2673111
127	0xbda6ac68	-0.08138353
128	0x3d15104b	0.03639249
129	0x3e1caa9c	0.15299457
130	0x3e7b05f4	0.2451399
131	0xbe2b79de	-0.16745707
132	0x3c8e2e56	0.01735608
133	0xbe42bffd	-0.1901855
134	0x3cca7837	0.024715526
135	0xbeb6a825	-0.3567516
136	0x3d5abd5e	0.05340325
137	0x3e3a6462	0.18202356
138	0x3c069dc5	0.008216326
139	0xbe0bfb52	-0.1367009
140	0x3cb4bc22	0.022062365
141	0xbdd92476	-0.106026575
142	0xbe4efb33	-0.20213012
143	0x3b35a7db	0.0027718458
144	0x3e917cfd	0.2841567
145	0x3d5d7087	0.054062393
146	0xbda6a71a	-0.08137341
147	0xbe120ec8	-0.14263451
148	0x3cc76a6e	0.024342742
149	0xbda3e7c5	-0.08003191
150	0xbcd5cc45	-0.02609838
151	0xbe0ad7db	-0.13558905
152	0xbe3fa843	-0.1871653
153	0x3a9f0817	0.0012133148
154	0xbcb8bfba	-0.02255236
155	0xbe90bcc1	-0.28269008
156	0x3e10a97a	0.1412715
157	0x3e2a8e67	0.16655885
158	0xbc97ef59	-0.018546747
159	0x3dbe032c	0.09277949
160	0xbe65160e	-0.22371694
161	0xbcd54216	-0.026032489
162	0x3c52449d	0.0128337415
163	0xbf39cb17	-0.72575516
164	0x3d8e5e1a	0.06951542
165	0xbe01680a	-0.12637344
166	0xbb0126ff	-0.0019707081
167	0xbd5910cc	-0.052994534
168	0x3e8ac894	0.27106154
169	0xbe6cdb5f	-0.23130558
170	0x3e9834e5	0.29727855
171	0x3e9c10a6	0.30481452
172	0xbe94e1fd	-0.29078665
173	0x3cfb1997	0.03065185
174	0x3df48ffa	0.11941524
175	0xbe0bcece	-0.13653108
176	0x3d123f86	0.035705112
177	0x3d4d97e1	0.05019367
178	0x3e47ce7e	0.19512364
179	0x3be642b2	0.0070269937
180	0x3ec13e79	0.37742975
181	0x3e43ac01	0.19108583
182	0xbeb3ffc3	-0.35156068
183	0xbf2e09ec	-0.6798389
184	0x3d2e6381	0.042575363
185	0x3d71816b	0.058961313
186	0xbecd9393	-0.40151653
187	0x3eb058dc	0.34442794
188	0x3e157702	0.14596179
189	0xbd840e9e	-0.064481005
190	0xbe00f3d1	-0.12593009
191	0xbde3d588	-0.11124712
192	0x3dc28e36	0.09499781
193	0x3de89856	0.11357181
194	0x3d583ae7	0.05279055
195	0xbe1f5259	-0.15558757
196	0xbdfa60b9	-0.1222548
197	0xbd1aaa42	-0.037760027
198	0x3e2fa4a8	0.17152655
199	0xbec5d9a7	-0.38642618
200	0xbd06db45	-0.032923955
201	0xbe8c9238	-0.27455306
202	0xbe280a73	-0.16410236
203	0xbe7f1728	-0.24911177
204	0x3da81230	0.08206594
205	0x3d87e03e	0.06634568
206	0xbe71f7c2	-0.23629668
207	0xbe8a0238	-0.26954818
208	0x3e2ae664	0.1668945
209	0xbeb669d7	-0.35627624
210	0x3e2d56f0	0.16927695
211	0x3c6b3b25	0.014357363
212	0xbe7f0cce	-0.24907228
213	0xbc840d92	-0.016119752
214	0xbde9fa1d	-0.114246584
215	0xbe916345	-0.2839605
216	0xbcdc683b	-0.02690517
217	0xbca713d4	-0.020395197
218	0x3ed51406	0.4161684
219	0xbe4f8fc7	-0.2026969
220	0x3df1e160	0.11810565
221	0x3dd01578	0.10160345
222	0x3dc8ae99	0.09798927
223	0x3eb387c9	0.35064533
224	0xbe2cb2c1	-0.16865064
225	0x3d5b844a	0.053592958
226	0x3e051289	0.12995352
227	0xbc53149d	-0.012883333
228	0x3e393401	0.18086244
229	0x3edac5cb	0.4272903
230	0x3dc91e98	0.098202884
231	0x3e620bda	0.22074834
232	0x3d45fdbe	0.04833769
233	0x3ebae7b7	0.3650491
234	0x3eb04fcb	0.34435877
235	0xbeaf44f1	-0.34232286
236	0xbed83527	-0.42228052
237	0x3e425610	0.18978143
238	0xbcab35a6	-0.020899605
239	0xbdc04893	-0.093888424
240	0x3da759a6	0.08171396
241	0x3c9b4de8	0.018958047
242	0xbd04b16f	-0.032395776
243	0x3ea62dd6	0.32456845
244	0xbcb030dc	-0.021507673
245	0x3e16ce69	0.14727177
246	0xbd93d592	-0.0721847
247	0x3d13ff2d	0.036132026
248	0x3e249dbe	0.16075799
249	0x3c5f0e04	0.013614181
250	0x3eeabe1f	0.45848176
251	0xbb10e4b4	-0.0022108974
252	0xbe673503	-0.22578816
253	0xbc865900	-0.01639986
254	0x3e0ceac1	0.13761427
255	0xbe75d9a8	-0.2400881

predictor/l3/b f4 [65]
0	0xbedd0646	-0.4316885
1	0x3ea76dee	0.32701057
2	0x3c9b91b7	0.01899038
3	0xbe740cdb	-0.23833029
4	0xbddd0e6b	-0.10793766
5	0x3e1f3e64	0.15551144
6	0xbd38e77f	-0.045142647
7	0xbe20fddb	-0.15721838
8	0xbd24a8b3	-0.040199947
9	0xbd7aa936	-0.06119653
10	0xbcdba705	-0.02681304
11	0xbcbe2ee4	-0.023215719
12	0xbed4588d	-0.4147381
13	0x3dfc0cd0	0.12307131
14	0xbdafb42d	-0.08579288
15	0xbd3c7f41	-0.046019796
16	0x3ece4af9	0.40291575
17	0x3e397ccd	0.18114014
18	0x3d5de29d	0.054171193
19	0x3d702657	0.058630314
20	0xbe76cfc3	-0.24102692
21	0xbd71179e	-0.058860414
22	0x3deb5f40	0.11492777
23	0xbdc963ff	-0.09833526
24	0xbdf0558a	-0.11735065
25	0xbddc75e8	-0.10764676
26	0x3d36df7c	0.044646725
27	0xbdba3dc1	-0.0909381
28	0xbdb73e62	-0.089474455
29	0x3d7a98b2	0.061180778
30	0xbdfc5f39	-0.1232285
31	0x3da7e610	0.08198178
32	0x3e8d64d0	0.27615976
33	0xbcbc6681	-0.022998096
34	0xbdb2b467	-0.08725815
35	0xbdc344d1	-0.0953461
36	0xbd9c6451	-0.07636321
37	0xbd6d2fc7	-0.057906892
38	0x3e1f8949	0.15579714
39	0x3ce99b9f	0.028516589
40	0x3e196072	0.14978197
41	0x3dff1c9d	0.124566294
42	0x3d0ff84a	0.035148896
43	0x3d7c348a	0.061573543
44	0xbd2ac8bb	-0.041695338
45	0xbe6a5415	-0.22883637
46	0xbe067f48	-0.13134491
47	0x3e70d389	0.23518194
48	0x3e221836	0.15829548
49	0xbeab0a71	-0.33406404
50	0xbe09bb56	-0.13450369
51	0xbdaf7bbd	-0.08568523
52	0x3d0a25f3	0.033727597
53	0x3ea4ee62	0.32213122
54	0x3d94b8e4	0.072618276
55	0x3e48f651	0.19625212
56	0xbe076450	-0.1322186
57	0x3ec29ef4	0.38011897
58	0x3e250383	0.16114621
59	0xbe1830c4	-0.14862353
60	0xbce9bb09	-0.028531568
61	0x3e72b6a5	0.23702486
62	0x3e2fcb83	0.17167477
63	0xbe4ab003	-0.19793706
64	0xbc4419a5	-0.011969005

predictor/l2/W f4 [100, 100]
0	0xbd8a68fd	-0.06758306
1	0x3ea5cf5b	0.32384762
2	0x3f148b21	0.58024794
3	0xbe7ebbe3	-0.2487636
4	0x3ee9b7c2	0.4564801
5	0x3da96ac9	0.08272321
6	0xbe47c94a	-0.1951038
7	0xbd910d93	-0.07082667
8	0xbe04079b	-0.12893526
9	0xbcc3f67b	-0.023921242
10	0xbf104a8f	-0.5636377
11	0xbeefb9c3	-0.46821412
12	0xbe26ca44	-0.16288096
13	0xbe24055e	-0.16017672
14	0x3e9204ac	0.2851919
15	0x3f065513	0.5247356
16	0xbf035e1f	-0.5131549
17	0x3da0550e	0.07828723
18	0xbee25375	-0.44204298
19	0xbda25bcc	-0.07927665
20	0xbe0c8173	-0.13721256
21	0xbcce27dc	-0.02516549
22	0x3f27f924	0.65614533
23	0x3e18c850	0.14920163
24	0x3e9ab182	0.30213553
25	0x3da0a9bc	0.07844874
26	0xbd9b16e1	-0.07572723
27	0xbf17dd1c	-0.5932176
28	0x3ef1e31e	0.4724359
29	0xbddc9869	-0.107712574
30	0xbe83a39f	-0.2571077
31	0xbda3d1e4	-0.07999018
32	0x3eb58341	0.354517
33	0x3c70b054	0.014690477
34	0xbdd8f843	-0.10594227
35	0xbf8b9673	-1.0905288
36	0xbf0685bf	-0.5254783
37	0x3e5fa849	0.2184154
38	0xbe97bce4	-0.296363
39	0xbe178502	-0.14796832
40	0x3d804ae3	0.062642835
41	0x3e896a73	0.26839027
42	0x3dabae77	0.08382886
43	0x3d3f3692	0.0466829
44	0x3d44d36d	0.048053194
45	0x3d839c04	0.06426242
46	0xbec1c719	-0.37847212
47	0xbe8b2d01	-0.27182773
48	0x3e05a979	0.1305293
49	0x3ea0fab9	0.31441286
50	0xbedc8beb	-0.430755
51	0x3e0a8724	0.13528115
52	0xbeb2b50e	-0.3490376
53	0xbe8c9173	-0.2745472
54	0xbc0b80df	-0.008514612
55	0xbe910f87	-0.2833216
56	0xbc54d501	-0.012990237
57	0x3e2053a4	0.15656906
58	0xbea9f474	-0.33194315
59	0x3e02b148	0.1276294
60	0x3de0aff0	0.109710574
61	0xbe593c7e	-0.21214482
62	0xbe899da6	-0.2687809
63	0x3ea60e08	0.3243258
64	0x3c2bda2f	0.010489031
65	0xbd61d744	-0.055136934
66	0xbde3fd44	-0.11132291
67	0x3e91a584	0.2844659
68	0x3cc9da92	0.024640355
69	0x3e56a57d	0.20961566
70	0xbc043585	-0.008069401
71	0xbe852690	-0.26005983
72	0x3e9e8848	0.3096335
73	0x3d4ee0b8	0.050507277
74	0x3d5db49a	0.054127313
75	0xbe06160c	-0.13094348
76	0xbea83fc2	-0.32861143
77	0xbeb0d24d	-0.34535447
78	0x3f04c149	0.5185743
79	0xbf2e9e2e	-0.68210113
80	0x3e76c00a	0.24096695
81	0xbe73a4b0	-0.23793292
82	0x3e408aea	0.18802992
83	0xbf11f2ce	-0.57011116
84	0x3e1e8b35	0.15482791
85	0x3c3c533e	0.011494456
86	0xbeda7839	-0.42669848
87	0x3db1e350	0.086859345
88	0x3ddd9458	0.1081931
89	0x3e204a41	0.15653326
90	0x3eb782a4	0.35841858
91	0x3de541f6	0.11194222
92	0x3efa7822	0.4891978
93	0xbdd22cd5	-0.10262457
94	0x3db151e4	0.086581975
95	0x3d56f5b9	0.052480433
96	0x3f13a94c	0.576802
97	0xbd812e17	-0.06307619
98	0x3dfe603d	0.124207
99	0xbe8974b2	-0.26846844
100	0xbed510b0	-0.41614294
101	0x3ec8a9b7	0.39191982
102	0x3ed62145	0.41822258
103	0x3e11befa	0.14233008
104	0xbe269cf3	-0.16270809
105	0x3eb96c01	0.36215213
106	0xbe827a58	-0.25483966
107	0xbe18092f	-0.14847253
108	0x3ee1bdfa	0.44090253
109	0xbebb0377	-0.3652608
110	0x3ec9b5bf	0.39396474
111	0x3d7b1e79	0.061308358
112	0xbdfb9b6c	-0.12285504
113	0xbdba60dd	-0.091005065
114	0x3e3569c3	0.17716126
115	0xbf2f9cbb	-0.68598527
116	0x3f04aa2e	0.51822174
117	0xbe0f1cf5	-0.1397589
118	0x3d85b6aa	0.06528981
119	0xbe9c1b7d	-0.30489722
120	0xbe4a7218	-0.19770086
121	0x3eea8647	0.4580557
122	0xbea654b1	-0.3248649
123	0xbf75e2a5	-0.9604896
124	0x3e301dc1	0.1719885
125	0xbee30b3c	-0.4434451
126	0x3e6ffd12	0.23436382
127	0x3e6caae0	0.23112059
128	0xbeaf4c6e	-0.34238
129	0x3e1e6bdf	0.15470837
130	0xbc49ade1	-0.012309522
131	0xbe3abc77	-0.18235956
132	0xbefe3781	-0.4965172
133	0x3e7b4d63	0.2454124
134	0x3de937a5	0.113875665
135	0x3ee3fa30	0.44526815
136	0x3e6cac91	0.23112704
137	0xbdda19f5	-0.10649482
138	0xbd5accf6	-0.053418122
139	0x3cdbb2c4	0.02681864
140	0xbe261225	-0.16217859
141	0x3e7b5653	0.24544649
142	0xbdad77b7	-0.084700994
143	0x3e20699d	0.15665288
144	0x3dc02e15	0.093837894
145	0xbe8a11b3	-0.26966628
146	0xbdc4079e	-0.09571765
147	0x3eb65c8a	0.35617477
148	0xbc5c1921	-0.013433726
149	0xbe2ffe34	-0.17186815
150	0xbe8d8c15	-0.27645937
151	0x3d8195c7	0.06327396
152	0x3e8b7f93	0.2724577
153	0xbea66cc2	-0.3250485
154	0x3e0d837a	0.13819686
155	0x3eb0646b	0.34451613
156	0xbcdb6037	-0.026779277
157	0x3e0fc33a	0.14039317
158	0x3d97f0ba	0.07418962
159	0x3efa0974	0.48835337
160	0xbdce17dc	-0.100631446
161	0x3e3e63d3	0.18592767
162	0xbed089fb	-0.4073027
163	0xbe307b09	-0.17234434
164	0xbd57b903	-0.052666675
165	0x3e82498f	0.25446746
166	0xbefd3f41	-0.4946232
167	0xbef486fe	-0.4775924
168	0xbc8ac924	-0.016941614
169	0xbd356872	-0.04428906
170	0xbce64ce3	-0.028112834
171	0x3d41b16e	0.04728835
172	0xbc85b927	-0.01632364
173	0xbcafc49e	-0.021456059
174	0xbddb8e4d	-0.10720501
175	0x3e8e7282	0.27821738
176	0xbe67d09a	-0.22638169
177	0xbe3f96c8	-0.18709862
178	0x3e4dd130	0.2009933
179	0xbec5ffc5	-0.386717
180	0xbe5130e3	-0.20428805
181	0x3e3f596d	0.18686457
182	0x3ed44ee8	0.4146645
183	0x3e50d088	0.20392048
184	0xbf3d236f	-0.7388219
185	0xbd3fa748	-0.04679039
186	0x3e5a8d72	0.2134302
187	0x3d588e2c	0.05286996
188	0x3e25380a	0.16134658
189	0x3f028bca	0.5099455
190	0xbf030a9b	-0.5118806
191	0x3dee900c	0.116485685
192	0x3d2b884f	0.04187804
193	0xbed339b5	-0.41254964
194	0x3dbfd95c	0.0936763
195	0x3e36b5df	0.17842816
196	0xbef6fc23	-0.4823924
197	0xbe924194	-0.28565657
198	0xbef69626	-0.4816143
199	0xbd932f94	-0.07186809
200	0xbeb3279e	-0.34991163
201	0x3e8c07da	0.2734974
202	0x3e882622	0.26591593
203	0xbda79d78	-0.08184332
204	0x3e863394	0.26211226
205	0xbe3c26df	-0.18374203
206	0x3f0307df	0.51183885
207	0xbded8628	-0.11597854
208	0xbf26413b	-0.64943284
209	0x3e2c1e28	0.16808379
210	0xbe0745ff	-0.13210295
211	0xbd48076d	-0.048835207
212	0xbe7173cc	-0.23579329
213	0x3e1e12ba	0.15436831
214	0xbe6b2b74	-0.22965795
215	0xbea5c33e	-0.3237552
216	0x3df4a7d0	0.1194607
217	0xbddcacdf	-0.1077516
218	0xbeac12ce	-0.33608097
219	0x3d0cf75f	0.0344156
220	0x3d87e04e	0.066345796
221	0xbf319cdb	-0.6937997
222	0xbe99ff36	-0.30077523
223	0xbe09fe84	-0.13475996
224	0x3ed3318c	0.4124874
225	0xbddca156	-0.1077296
226	0x3eedd245	0.46449485
227	0xbe9af1ea	-0.3026269
228	0x3d012e45	0.031538267
229	0xbe2b8b6d	-0.16752405
230	0x3e80f175	0.25184217
231	0xbeda889f	-0.4268236
232	0xbdb8e44e	-0.09027921
233	0xbe474bc7	-0.194625
234	0xbdf1660c	-0.11787042
235	0xbd9cc197	-0.07654112
236	0xbe59f291	-0.21283938
237	0xbe7d1db2	-0.24718359
238	0xbe5baacd	-0.21451874
239	0x3e5fec3b	0.21867459
240	0x3e40a0c9	0.18811335
241	0x3d12c44d	0.03583174
242	0x3ee0b506	0.4388811
243	0xbe45fa0a	-0.19333664
244	0x3e206795	0.15664513
245	0x3da6a543	0.0813699
246	0x3e3c48df	0.18387173
247	0x3e3243b3	0.17408638
248	0x3e5b02c8	0.2138778
249	0x3eb68813	0.3565069
250	0x3f280546	0.65633047
251	0xbd7935fd	-0.060842503
252	0x3dce9f17	0.10088938
253	0x3e79a365	0.24378736
254	0x3dadf83b	0.08494612
255	0x3e8be0b7	0.2731988

predictor/l2/b f4 [100]
0	0x3e41287b	0.18863098
1	0x3ca3c064	0.0199892
2	0xbdbcd041	-0.09219409
3	0xbd59f3a0	-0.053210855
4	0x3e397cf9	0.1811408
5	0x3d96887f	0.07350253
6	0x3e83b028	0.25720334
7	0x3e1925d1	0.14955832
8	0xbdecc4f2	-0.11561002
9	0x3edcf087	0.43152258
10	0x3e453fac	0.1926257
11	0xbe67a5d0	-0.22621846
12	0xbbef2a3b	-0.0072987354
13	0x3d0499ed	0.032373358
14	0xbdcbc7aa	-0.09950192
15	0xbc2e0de0	-0.010623425
16	0xbd806326	-0.06268911
17	0xbe8ef169	-0.27918556
18	0x3d0c7ad9	0.034296844
19	0x3e828b63	0.2549697
20	0xba86a27a	-0.001027181
21	0x3e782d75	0.2423609
22	0x3c652d3a	0.013987834
23	0x3d17455e	0.036931388
24	0xbea06199	-0.3132446
25	0x3f10402e	0.5634793
26	0x3e95f641	0.2928944
27	0xbe99dd35	-0.3005158
28	0xbde64871	-0.11244286
29	0x3eef5969	0.46747902
30	0x3ed7e0c6	0.42163676
31	0xbe3c51b2	-0.1839054
32	0x3e409837	0.18808065
33	0x3f0970c2	0.5368768
34	0x3d237557	0.039906826
35	0x3e7c54a4	0.24641663
36	0x3d4161a5	0.04721226
37	0xbd9a6285	-0.07538322
38	0xbec5b0fe	-0.38611597
39	0xbdd375cd	-0.10325203
40	0xbe911f4b	-0.28344187
41	0x3eb9e3d8	0.36306643
42	0xbe041e35	-0.12902148
43	0x3e81d0ba	0.25354558
44	0x3e127fd4	0.14306575
45	0x3e585643	0.21126656
46	0x3e2b765b	0.16744368
47	0xbf119ebd	-0.5688284
48	0x3eb68ffc	0.35656726
49	0x3df1fbcb	0.11815604
50	0x3ec18a3d	0.3780078
51	0xbb98d891	-0.0046644886
52	0x3e8249f0	0.25447035
53	0x3e6bbc70	0.23021102
54	0xbe8884ae	-0.26663727
55	0x3c0a13e7	0.008427597
56	0x3f197114	0.5993817
57	0x3ec2cde6	0.38047713
58	0x3d831174	0.06399813
59	0x3e14839a	0.14503327
60	0xbde15ccf	-0.1100403
61	0x3edeeac6	0.43538493
62	0x3e0c0d00	0.13676834
63	0x3e6bd7f9	0.23031606
64	0xbc608bf4	-0.013705242
65	0x3dae766b	0.0851868
66	0x3f0dd809	0.5540777
67	0xbe7f773e	-0.24947831
68	0x3eddf6ff	0.43352506
69	0xbd9aa528	-0.07551032
70	0xbd5dbfad	-0.054137874
71	0xbdb73d1a	-0.08947201
72	0x3c653b93	0.013991254
73	0xbe92b85a	-0.28656274
74	0x3e95bff6	0.29248017
75	0x3e93968f	0.28825805
76	0xbce207e6	-0.027591657
77	0xbb845cb9	-0.0040393737
78	0xbe64dca6	-0.22349796
79	0xbe9ae8c4	-0.3025571
80	0x3e4f2c62	0.20231774
81	0x3e137948	0.14401734
82	0x3e61322e	0.21991798
83	0xbd0c74cb	-0.03429107
84	0x3ed378a4	0.4130298
85	0x3cebbf3c	0.028777711
86	0xbe81843f	-0.25296208
87	0x3f18ecab	0.59736127
88	0xbcd3de33	-0.025862789
89	0x3e6313c4	0.22175509
90	0x3da219a4	0.07915047
91	0xbcf83004	-0.030296333
92	0x3e4a333a	0.19746104
93	0xbec853ea	-0.3912652
94	0x3e35d0ec	0.17755479
95	0x3dd30e77	0.10305493
96	0x3f0303ca	0.51177657
97	0x3e35a6c8	0.17739403
98	0x3d794348	0.06085518
99	0xbdcfd52e	-0.10148083
